Teste-ML-20251127T155346Z-1-001/Teste-ML/fashion_mnist_cnn_quantized.tflite (tflite, 235240 bytes, 4 tensors)

tfl.pseudo_qconst1 i1 [10, 128]
00000000: bb21 040e ebe7 1910 cf9e 3c16 f3fe ff08
00000010: 26f2 e845 04ad e8e9 c7d6 15ee 8e03 cb06
00000020: 8eac ddfe fdef e1c1 06ab 0ad4 2431 2ff1
00000030: 1929 05ff 0114 e3dc b7e4 811a 131c e601
00000040: bf13 f824 1316 0eca 12bb fbf0 1a02 bdf4
00000050: ffd8 e0bc 1c35 203c 1ee9 3813 e135 cbab
00000060: 292f 3632 34c0 28ea 1e20 e022 c117 f906
00000070: 0e0d 1be2 e5dc d510 c2fe eae8 e215 c3db
00000080: f82d f715 130f fb06 d82c f91e 220a 07b9
00000090: d5f0 03bc 10c1 1ee7 0c03 ccf1 e3e4 1d15
000000a0: 0f4d c8c9 efd5 ffe7 10f8 1be4 0cf0 f504
000000b0: da0b 01b6 1000 e7ed 0ae4 f007 20d9 070b
000000c0: 100d cb07 4223 f6d8 98de c8f5 020f e50f
000000d0: 81bc fbcb 0519 f5fe ec0a c6ec 12d2 ebf7
000000e0: f725 14ca 1e01 efef e2de f101 b013 0e06
000000f0: ce11 f803 f614 eff1 dc03 02f0 2eb9 fa21
-69 33 4 14 -21 -25 25 16
-49 -98 60 22 -13 -2 -1 8
38 -14 -24 69 4 -83 -24 -23
-57 -42 21 -18 -114 3 -53 6
-114 -84 -35 -2 -3 -17 -31 -63
6 -85 10 -44 36 49 47 -15
25 41 5 -1 1 20 -29 -36
-73 -28 -127 26 19 28 -26 1
-65 19 -8 36 19 22 14 -54
18 -69 -5 -16 26 2 -67 -12
-1 -40 -32 -68 28 53 32 60
30 -23 56 19 -31 53 -53 -85
41 47 54 50 52 -64 40 -22
30 32 -32 34 -63 23 -7 6
14 13 27 -30 -27 -36 -43 16
-62 -2 -22 -24 -30 21 -61 -37
-8 45 -9 21 19 15 -5 6
-40 44 -7 30 34 10 7 -71
-43 -16 3 -68 16 -63 30 -25
12 3 -52 -15 -29 -28 29 21
15 77 -56 -55 -17 -43 -1 -25
16 -8 27 -28 12 -16 -11 4
-38 11 1 -74 16 0 -25 -19
10 -28 -16 7 32 -39 7 11
16 13 -53 7 66 35 -10 -40
-104 -34 -56 -11 2 15 -27 15
-127 -68 -5 -53 5 25 -11 -2
-20 10 -58 -20 18 -46 -21 -9
-9 37 20 -54 30 1 -17 -17
-30 -34 -15 1 -80 19 14 6
-50 17 -8 3 -10 20 -17 -15
-36 3 2 -16 46 -71 -6 33

tfl.pseudo_qconst3 i1 [128, 1600]
00000000: ee06 ef0f 2816 f8fe f60a 0d49 260f 01f1
00000010: 0b28 fefe 12ea fc1d 011a bdd6 ed06 c3ac
00000020: 391f 03e5 3311 250a 0fd4 1507 df13 0b0a
00000030: 1fd6 19fe f8f1 baee 04de bcf0 3a31 f339
00000040: af00 f6e7 e8f5 e604 eafb 0224 e4f4 de1f
00000050: 4ff9 e516 ffff 0610 d610 08e7 dd2b f0fb
00000060: f31c b303 c9f6 2f01 0415 2af1 3e21 1405
00000070: 11d4 050e ed2c 0efb 0527 1916 07fc 3117
00000080: 3016 1113 0e0d 0a26 1bf1 f501 fe04 1ed8
00000090: 0a3c fa18 ff43 2e0c 2edc eb1f d52f 3615
000000a0: edef fffc 2341 2de5 19fd 56fc 0348 2cc7
000000b0: 15e1 113c 17f3 203f 36fa f923 1110 4cf2
000000c0: cadc 0e12 2fd8 0e19 4bfd 3003 d509 f828
000000d0: f70c d52a fae4 de0f 3109 fb08 d634 ffe6
000000e0: cc03 01c7 054e 26f0 1215 06f5 115f f1f0
000000f0: f924 07ec f8f5 051e 20fb 2af8 f914 e200
-18 6 -17 15 40 22 -8 -2
-10 10 13 73 38 15 1 -15
11 40 -2 -2 18 -22 -4 29
1 26 -67 -42 -19 6 -61 -84
57 31 3 -27 51 17 37 10
15 -44 21 7 -33 19 11 10
31 -42 25 -2 -8 -15 -70 -18
4 -34 -68 -16 58 49 -13 57
-81 0 -10 -25 -24 -11 -26 4
-22 -5 2 36 -28 -12 -34 31
79 -7 -27 22 -1 -1 6 16
-42 16 8 -25 -35 43 -16 -5
-13 28 -77 3 -55 -10 47 1
4 21 42 -15 62 33 20 5
17 -44 5 14 -19 44 14 -5
5 39 25 22 7 -4 49 23
48 22 17 19 14 13 10 38
27 -15 -11 1 -2 4 30 -40
10 60 -6 24 -1 67 46 12
46 -36 -21 31 -43 47 54 21
-19 -17 -1 -4 35 65 45 -27
25 -3 86 -4 3 72 44 -57
21 -31 17 60 23 -13 32 63
54 -6 -7 35 17 16 76 -14
-54 -36 14 18 47 -40 14 25
75 -3 48 3 -43 9 -8 40
-9 12 -43 42 -6 -28 -34 15
49 9 -5 8 -42 52 -1 -26
-52 3 1 -57 5 78 38 -16
18 21 6 -11 17 95 -15 -16
-7 36 7 -20 -8 -11 5 30
32 -5 42 -8 -7 20 -30 0

tfl.pseudo_qconst5 i1 [64, 3, 3, 32]
00000000: de18 fbf4 cfee b547 2e5d eab6 c89a fce1
00000010: dcfc f6c8 0a5e beb3 fbe8 a5fe d0e4 81dd
00000020: d32c 050d fe23 f728 13f0 ef81 f4ea 1914
00000030: e807 d6ed fff2 cee1 2dff d9fd f8f4 ebce
00000040: f0be dcfa 0d07 f9d1 1ae1 22d3 07be f306
00000050: 0e11 ff14 2703 20da 2efd ce04 3f17 0dde
00000060: ece9 f3f9 05ff e8e2 fae7 1917 e90d c510
00000070: ff13 0005 130a fa25 ecf2 fffa 19ed e5d5
00000080: fac1 bafa f604 1bdd f7bb f8e2 1410 151b
00000090: 0cf6 01dd 12ce b019 0701 1300 d3f4 9bd5
000000a0: ebce f007 0fea beb3 c913 fef0 01f4 ac24
000000b0: 0425 0017 04d2 0c1b 08c5 0836 10ff ede3
000000c0: 2627 f2ed e8e4 fde5 e8c5 fc17 1206 ea05
000000d0: dfce f304 1416 0df8 1df7 05e9 210e e60d
000000e0: 11f5 e501 09dc 16e9 05a9 0623 fa1d ec1f
000000f0: 0310 f935 16f8 0409 e5f4 1e0d 0b26 f4e6
-34 24 -5 -12 -49 -18 -75 71
46 93 -22 -74 -56 -102 -4 -31
-36 -4 -10 -56 10 94 -66 -77
-5 -24 -91 -2 -48 -28 -127 -35
-45 44 5 13 -2 35 -9 40
19 -16 -17 -127 -12 -22 25 20
-24 7 -42 -19 -1 -14 -50 -31
45 -1 -39 -3 -8 -12 -21 -50
-16 -66 -36 -6 13 7 -7 -47
26 -31 34 -45 7 -66 -13 6
14 17 -1 20 39 3 32 -38
46 -3 -50 4 63 23 13 -34
-20 -23 -13 -7 5 -1 -24 -30
-6 -25 25 23 -23 13 -59 16
-1 19 0 5 19 10 -6 37
-20 -14 -1 -6 25 -19 -27 -43
-6 -63 -70 -6 -10 4 27 -35
-9 -69 -8 -30 20 16 21 27
12 -10 1 -35 18 -50 -80 25
7 1 19 0 -45 -12 -101 -43
-21 -50 -16 7 15 -22 -66 -77
-55 19 -2 -16 1 -12 -84 36
4 37 0 23 4 -46 12 27
8 -59 8 54 16 -1 -19 -29
38 39 -14 -19 -24 -28 -3 -27
-24 -59 -4 23 18 6 -22 5
-33 -50 -13 4 20 22 13 -8
29 -9 5 -23 33 14 -26 13
17 -11 -27 1 9 -36 22 -23
5 -87 6 35 -6 29 -20 31
3 16 -7 53 22 -8 4 9
-27 -12 30 13 11 38 -12 -26

tfl.pseudo_qconst7 i1 [32, 3, 3, 1]
00000000: 6491 f709 4219 811a 26fb dd1f 9e81 edec
00000010: 88f4 031f fa81 e21d 97fd f516 6f4f d0c8
00000020: 2425 7f46 c57a cfc8 7fca 1009 e1a6 e362
00000030: 9d17 7ffd 030a 3895 433d 8144 0abc 1ff2
00000040: 81d3 15c7 05ff 082d d6a9 d5ca af14 687f
00000050: 493c 0bee b381 efc6 ea33 7fdb bd9b 721b
00000060: b70e 1a0c d581 36f7 bf40 fff5 a84b 1e93
00000070: 254b 8156 166c 0046 2b07 4696 81c5 0ca0
00000080: 68fd 907f 08b9 42b4 5af6 0229 d44c 812c
00000090: f9d7 be22 2037 a8e3 8181 f742 5348 2421
000000a0: 95a8 3981 cb21 0949 2629 ad7f d8b6 7b97
000000b0: 001d 924d 332c d681 3573 3ba6 bdac 819d
000000c0: dba8 ba13 06fd 4da6 8163 02bc 2e00 2251
000000d0: 312b 36e3 e581 dffc c27f c098 353a edfa
000000e0: 17bb ee7f 8cf0 7fc9 d147 406b 5c2a fdfd
000000f0: a181 b9d9 8179 b27d f12f 2493 2d2a ac7f
100 -111 -9 9 66 25 -127 26
38 -5 -35 31 -98 -127 -19 -20
-120 -12 3 31 -6 -127 -30 29
-105 -3 -11 22 111 79 -48 -56
36 37 127 70 -59 122 -49 -56
127 -54 16 9 -31 -90 -29 98
-99 23 127 -3 3 10 56 -107
67 61 -127 68 10 -68 31 -14
-127 -45 21 -57 5 -1 8 45
-42 -87 -43 -54 -81 20 104 127
73 60 11 -18 -77 -127 -17 -58
-22 51 127 -37 -67 -101 114 27
-73 14 26 12 -43 -127 54 -9
-65 64 -1 -11 -88 75 30 -109
37 75 -127 86 22 108 0 70
43 7 70 -106 -127 -59 12 -96
104 -3 -112 127 8 -71 66 -76
90 -10 2 41 -44 76 -127 44
-7 -41 -66 34 32 55 -88 -29
-127 -127 -9 66 83 72 36 33
-107 -88 57 -127 -53 33 9 73
38 41 -83 127 -40 -74 123 -105
0 29 -110 77 51 44 -42 -127
53 115 59 -90 -67 -84 -127 -99
-37 -88 -70 19 6 -3 77 -90
-127 99 2 -68 46 0 34 81
49 43 54 -29 -27 -127 -33 -4
-62 127 -64 -104 53 58 -19 -6
23 -69 -18 127 -116 -16 127 -55
-47 71 64 107 92 42 -3 -3
-95 -127 -71 -39 -127 121 -78 125
-15 47 36 -109 45 42 -84 127
